orders_outputs/network_cnn.onnx (onnx, 65316 bytes, 8 tensors)

conv1.weight f4 [6, 3, 5, 5]
000000 b0 ad 1c 3d 82 94 0e be 81 01 53 3d ff f8 bc bc
       0.03825158 -0.13923839 0.051515106 -0.02306795
000010 8f 61 54 bd c2 67 85 3c 5d 7e 14 3c 4a 11 91 bd
       -0.05185085 0.016284827 0.0090633305 -0.07083376
000020 d8 49 08 bd e1 b8 0b be ab 1b b0 3c de f8 77 3c
       -0.033273548 -0.13644744 0.021497568 0.015135018
000030 bd db c5 bb d6 e9 ce bd 36 16 5e 3c a5 e8 b0 3d
       -0.0060381577 -0.101031944 0.0135551 0.086381234
000040 15 f3 55 bd 42 2c e7 3a f3 b5 94 bd 99 01 90 bd
       -0.052233774 0.0017637091 -0.072612666 -0.07031555
000050 bb 2d e7 3d 7c 8b c2 bd bd 14 69 3d 02 16 80 3b
       0.11288019 -0.09499261 0.056904543 0.0039088735
000060 07 46 a4 bd 9a 7c a1 bd 2d 47 04 be 6e f5 54 3d
       -0.08021169 -0.07885094 -0.12917776 0.051991872
000070 6f dc 03 be ce dc a4 bd a5 5d df bd e0 c9 07 3d
       -0.12877057 -0.08049928 -0.10906533 0.033151507
000080 2f 75 cf bd 8f df c5 bd 17 a9 10 3d dd 5e ed 3d
       -0.10129773 -0.09661781 0.035317507 0.11590359
000090 bc 4e 13 3d 16 87 90 3d d7 bc f0 bd 17 5b c3 bd
       0.03596376 0.070570156 -0.11754768 -0.095388584
0000a0 2c 48 a7 3d 79 c4 cd 3d 5e 13 a0 bc 29 3b db 3b
       0.081680626 0.1004724 -0.019540485 0.006690402
0000b0 19 e8 bf 3d e9 f8 ce bc ae e0 53 3d 4e 17 48 3c
       0.09370441 -0.025265174 0.051727943 0.0122125875
0000c0 e5 05 cb 3d ff 57 93 3d 72 ea c5 bd 79 26 4d bd
       0.09913234 0.07194518 -0.096638575 -0.05008552
0000d0 1d 34 9e ba 20 8e 92 3d 1c 15 c7 bd ce 2f 8f bd
       -0.0012069974 0.071560144 -0.09720823 -0.0699154
0000e0 82 44 87 3d 0a 9a 3b 3d d5 30 5b 3c 9a 3a d1 3a
       0.06604864 0.0458012 0.013378342 0.0015962899
0000f0 84 69 b2 ba 5e 01 a7 3d ab 90 e9 3d 5a 07 de bd
       -0.0013611768 0.08154558 0.11404546 -0.10841246
000100 37 64 c6 bd 30 8d d0 3d ff 4e 0c 3e d0 40 5f 3d
       -0.09687083 0.101831794 0.1370201 0.05450517
000110 c7 bf 16 bb e9 f2 41 bd 8b 7b 95 bd ee c8 24 3d
       -0.0023002492 -0.047350798 -0.072989546 0.040230684
000120 05 65 30 3d 2d 98 9c 3d a8 b4 93 bd ef 1d 4c bd
       0.04306509 0.07646213 -0.07212192 -0.049833234
000130 ea 69 a7 3c 10 94 5d bc cc 6e f9 bd c7 10 08 be
       0.020436246 -0.01352407 -0.12179336 -0.1328765
000140 b3 8d 9b 3d 8f 82 d6 bd ed 7d db bd f2 ef 50 3d
       0.07595386 -0.10474121 -0.10717378 0.05101008
000150 a3 9b 94 3d 24 06 75 3d a3 e0 3f bd 08 19 01 be
       0.07256248 0.05982031 -0.04684509 -0.12607205
000160 80 f1 e7 3d 71 47 3e 3d 0a b2 80 3d 4a dd ac bd
       0.11325359 0.04645485 0.06283958 -0.08440645
000170 4c e6 8a 3d 64 dc c6 bd 12 19 73 3c 32 0f 61 bd
       0.06782207 -0.09710005 0.01483752 -0.054946132
000180 ab 67 be bc 47 68 c0 3c b1 60 96 3d 74 28 8a 3c
       -0.023242792 0.023487223 0.07342661 0.016864993
000190 57 67 af bd 90 f7 55 3d ee ed 9a 3c b1 69 a5 3d
       -0.085646324 0.052238047 0.018912282 0.080768
0001a0 ef f8 b1 bd 2d 26 f8 3d 98 27 e2 3d 05 d9 83 bd
       -0.086900584 0.121166565 0.11042708 -0.064378776
0001b0 f2 2a 1b bd 36 ef 91 3d de 8d 81 3d 9d 8d be bd
       -0.037882753 0.07125704 0.06325887 -0.09304354
0001c0 06 d7 4e 3c fd 43 a5 bc a5 61 c8 bc 86 e0 eb 3d
       0.012624508 -0.02017402 -0.024460623 0.11517434
0001d0 3f 1c e6 3d 59 cb 06 3d b5 c2 30 bd 75 7a ae 3d
       0.11235856 0.03290877 -0.043154437 0.085194506
0001e0 08 67 80 3d e6 6b 3e bd 2d 5a 04 bd 7a 04 b1 bc
       0.06269652 -0.04648962 -0.03231256 -0.02160858
0001f0 2d 5e 82 bd 91 37 91 3d 97 7a d2 bd e9 85 29 3b
       -0.06365619 0.070906766 -0.102772884 0.002586717
000200 98 ac d3 bd 12 93 9c bd 9f 33 17 bd f1 59 d2 bd
       -0.10335654 -0.07645239 -0.036914464 -0.10271061
000210 a0 91 0e 3c de 97 3c 3c c4 75 c3 bd 85 7d 42 bd
       0.008701712 0.011510817 -0.095439464 -0.047482986
000220 76 99 02 be 03 a2 8c bd af ce f9 3d 47 d6 34 3d
       -0.12753853 -0.06866839 0.12197625 0.044149663
000230 7a c5 7c bd a1 c5 13 3d 24 c3 85 bd e7 fb fa 3d
       -0.061711766 0.036077145 -0.06531361 0.12255078
000240 9d 15 0c bd 34 1c 51 bd 0b 3f d4 3d af 2b 28 3d
       -0.0342003 -0.051052287 0.10363587 0.041057285
000250 9e 4f c7 bd 79 2d 8e bd 1e 27 a1 3c b6 ee c8 bd
       -0.09731983 -0.06942267 0.019671973 -0.098111555
000260 a0 9e dd bd 23 52 53 bd 8c e0 a9 3c 0e 55 cf bc
       -0.10821271 -0.051592004 0.020736955 -0.025309112
000270 6b 38 b2 3d 04 6d 18 bc 39 04 5c 3b 4e ad 35 bb
       0.08702167 -0.009303335 0.0033571853 -0.0027721706
000280 0f 04 2d bd 61 15 87 bd 3a 9e 10 3d b6 dc 66 3d
       -0.0422402 -0.065958746 0.035307147 0.05636283
000290 4d 1c 23 bd 3b d1 96 3c fe ca d3 bd 03 22 1f 3d
       -0.03982191 0.018410316 -0.10341452 0.038850795
0002a0 96 aa 07 bc 35 1d 54 bd 9e f1 67 bd 48 e1 95 3d
       -0.008280417 -0.051785666 -0.05662691 0.073183596
0002b0 59 7c f5 bc f8 56 a1 3d 23 28 3a bc ac ff 2c 3d
       -0.02996652 0.07877916 -0.011362108 0.042236015
0002c0 19 02 5c 3d c0 22 c0 3d 90 6c ad 3d 5c b2 86 bd
       0.053712938 0.09381628 0.08467972 -0.06576988
0002d0 49 0d 0a bd c9 31 c9 bd 27 3f 32 bd bb 62 78 bd
       -0.033704076 -0.09823949 -0.043517258 -0.06064103
0002e0 5d 1c f7 bd 72 dc 53 3d 0c 6a b0 3d cb 97 55 3d
       -0.12065957 0.051723905 0.08613977 0.052146714
0002f0 17 29 1e bd 36 41 9e bd 6b 4e f7 bd f2 f3 1d 3d
       -0.038613405 -0.07727282 -0.12075504 0.038562723
000300 7b ba a8 3d cc c0 b5 3d 3d 6f e0 3d 25 e1 f9 bc
       0.08238693 0.08874664 0.10958717 -0.030502865
000310 50 87 9b 3c 35 e7 29 bd 5d cb a4 3c f3 91 ad 3c
       0.01898542 -0.04148026 0.020116502 0.021187758
000320 fe 3d 0b 3d 73 42 06 3d c9 9f d1 bc 9c b7 7c 3d
       0.033994667 0.032778215 -0.025588887 0.06169854
000330 9f 5a 7d bd ec 89 bc 3d 54 43 03 3e 06 95 e0 bd
       -0.061854 0.09205994 0.12818652 -0.10965924
000340 81 82 62 bd 92 54 89 bd f1 ea bc bb 95 57 2a 3d
       -0.05530024 -0.06705584 -0.005765312 0.04158743
000350 72 7b 27 bd ec 54 94 bd 84 3a a3 bd 40 c7 da bd
       -0.04088921 -0.0724276 -0.07970145 -0.10682535
000360 f0 ea cc bd 5c 45 8d bd c4 d1 02 3d 9d 5b c1 bd
       -0.10005748 -0.06897995 0.03193833 -0.09441302
000370 f9 ac 68 bd f3 23 b4 bd e8 e8 f5 3a 53 5c 09 bc
       -0.056805585 -0.08795919 0.0018761428 -0.008383828
000380 68 8f 9f bd fb f4 a1 bd 4b d8 56 bd 23 8b bd 3c
       -0.077910244 -0.079080544 -0.052452367 0.023137635
000390 78 0a a6 3c 23 ba 5c 3d fd ed 91 3d 2d ce d6 3c
       0.020268664 0.05388845 0.07125471 0.02622136
0003a0 59 95 61 bc ef 88 bf 3d e7 38 84 3d 5f 55 7e 3b
       -0.013768517 0.0935229 0.06456166 0.003880821
0003b0 38 2e 23 bd 0c 29 18 bc 97 1b 78 3d 56 cc 8f 3d
       -0.039839 -0.00928713 0.060573187 0.07021396
0003c0 70 bb 96 3a f7 5e d1 bd 21 fc 88 bd fb 04 76 3d
       0.0011499953 -0.10223191 -0.06688715 0.060063343
0003d0 bf 41 cd bd 35 1c cf bd 7a f2 a6 3c 20 41 80 3d
       -0.10022306 -0.10112802 0.020379294 0.062624216
0003e0 58 03 a8 bd ee b8 90 3d 99 e0 16 bc 5e ec 00 3d
       -0.08203763 0.070665225 -0.009208822 0.031475417
0003f0 d3 a2 4d bd 94 e2 73 3d 5d 36 e2 3d f0 b9 9a 3d
       -0.05020411 0.059542254 0.11045525 0.07554996

conv1.bias f4 [6]
000000 3b 26 81 bd 4c c7 96 ba 91 5a 7b bd 02 a7 75 3d
       -0.0630612 -0.0011503487 -0.061365668 0.059973724
000010 91 c8 0b be 5b 56 e3 3c
       -0.13650729 0.027751138

conv2.weight f4 [16, 6, 5, 5]
000000 06 8a 69 bc 31 d9 92 bd c9 b4 2c 3d 12 a7 75 3d
       -0.014254099 -0.07170332 0.042164598 0.059973784
000010 fb 23 f2 bc 85 54 c7 bc ff 3f 67 bb 08 1a 40 bc
       -0.029558172 -0.024332294 -0.0035285947 -0.011724956
000020 20 cb 80 3d d3 79 63 bd bd 49 06 3c d7 90 87 3d
       0.06288743 -0.055536103 0.0081962915 0.06619423
000030 2e d4 00 bd a3 cb 73 3d e8 38 aa 3d 06 b4 cb 3c
       -0.03145235 0.059520375 0.08311635 0.024866115
000040 3c da 59 bb 9e 71 9e bd c1 ec a6 3d 3e e2 7c bb
       -0.003324165 -0.077365145 0.08150626 -0.0038587
000050 66 32 0a bd d4 a2 21 3d 4a 25 b5 bb bb 9b 07 bd
       -0.03373947 0.039461926 -0.005528127 -0.0331075
000060 90 00 b6 3d af af 5b 3d d7 d0 b4 bc 72 19 26 3d
       0.08886826 0.05363434 -0.022072239 0.04055161
000070 8c d4 00 bd 50 6a a6 bc c8 07 8a 3d a5 88 df bb
       -0.0314527 -0.020314366 0.067397654 -0.006821709
000080 2e 03 f1 bb d7 7c a9 bc eb d4 81 bc e0 15 08 3d
       -0.0073551154 -0.020689411 -0.015848598 0.033223987
000090 e1 68 ac 3c f5 3b 39 3c 0f b9 ef bc 14 53 09 3d
       0.021046104 0.011305799 -0.029263048 0.033526495
0000a0 20 18 a8 bd bc f0 a2 3c 49 d5 a5 bb cf 0f 7b bd
       -0.082077265 0.019890182 -0.005060826 -0.061294373
0000b0 66 f8 b3 3d d7 42 d0 bc 38 9d 1d 3c e8 66 c3 3c
       0.087876126 -0.025422497 0.009620003 0.02385278
0000c0 2c 01 fe 3c 88 01 10 3d 68 71 37 3b 3e 21 2b 3c
       0.031006418 0.03515771 0.002799118 0.010444937
0000d0 7b e6 96 3d e7 67 2b bd ef ea 76 bd aa 43 f2 bc
       0.073681794 -0.041847136 -0.060282644 -0.02957328
0000e0 2b 88 dc 3b e6 7f 97 bd 0c bf 7b 3c 3e 4f 89 bd
       0.0067300997 -0.073974416 0.015365373 -0.067045674
0000f0 52 11 4c bd e3 64 5e 3d c2 25 5c bd 57 87 50 3d
       -0.049821205 0.05429543 -0.053746946 0.05091032
000100 a9 36 b4 bb 23 58 ae bd b9 1f 14 bd 69 db 85 bd
       -0.00549968 -0.085129045 -0.036163066 -0.0653599
000110 61 00 84 bd 81 3c 57 3c e8 6b 67 bd 21 14 3c 3d
       -0.06445385 0.013136984 -0.05649939 0.045917634
000120 83 42 24 bc a8 c0 42 3d 09 a4 e4 3c 2a ac c0 ba
       -0.010025623 0.047547013 0.02791025 -0.0014699746
000130 eb 67 3b 3d 71 ea ba bd ba 45 9a bd ae 0e 9f bc
       0.0457534 -0.091267474 -0.075328305 -0.01941618
000140 99 86 a6 3c f8 2a 43 bd 56 4a d5 3c b7 ee 83 3d
       0.020327853 -0.0476484 0.026036423 0.064420156
000150 f0 f3 bd bd a9 86 4a bd a7 81 d2 bc a4 1c 70 bd
       -0.09275043 -0.04944483 -0.025696589 -0.058621064
000160 83 97 b6 bd 9f f3 a8 3c ed ae 7d 3d 19 f7 5f 3d
       -0.08915617 0.02062398 0.0619344 0.05467901
000170 43 16 25 3d ed 51 93 3c c3 02 0b 3d 0b a5 ac bc
       0.040304434 0.017983401 0.03393818 -0.021074792
000180 dd 8b d6 bc 2f 1e 81 3d 89 c4 86 3c dd 93 d2 bc
       -0.026189739 0.06304585 0.016451137 -0.025705272
000190 d3 c2 aa bd f3 b7 19 bc ea 46 87 3b f1 43 30 3d
       -0.08337941 -0.009382236 0.0041283267 0.043033544
0001a0 26 8e 76 3d 56 d0 21 bd da a0 18 3d ea 43 da 3c
       0.060194157 -0.039505325 0.037262775 0.026643712
0001b0 31 fa b2 3b ae 7c 87 3d 72 48 6d bd db 10 86 3d
       0.005461954 0.06615578 -0.057930417 0.06546184
0001c0 8e ea 53 bd 0f 78 04 bc 8e 45 13 3d f2 b7 18 3b
       -0.05173736 -0.008085265 0.035955004 0.0023303
0001d0 50 18 c9 bc 80 a3 bb bd 93 44 61 bd d0 98 90 3d
       -0.024547726 -0.091620445 -0.054997038 0.07060397
0001e0 5d 7d c2 bc 67 4c 6c 3c ef 25 9c 3c 7a 4f 21 bd
       -0.023741418 0.014422513 0.019061057 -0.039382435
0001f0 4a 6d 0f bd 0e d8 c1 bb b6 1b 89 ba 90 69 5a 3c
       -0.035016336 -0.0059156483 -0.0010460529 0.013330832
000200 7a 62 9f bd 54 bd a3 bd 60 40 c6 bc 56 1d ea 3c
       -0.07782455 -0.07995096 -0.024200618 0.028578442
000210 2f 58 19 bd 01 4a 69 3d 31 74 06 3c 37 1c 0f 3d
       -0.037437614 0.05695534 0.008206413 0.034939017
000220 b1 aa 5c 3c 22 18 8b bd 7e b0 06 3c e4 c7 2a bd
       0.01346843 -0.06791712 0.00822079 -0.041694537
000230 52 45 85 bd 09 16 75 bd 8f 59 35 3d f6 b3 2a 3d
       -0.065073624 -0.059835467 0.044274863 0.04167553
000240 b0 45 3b 3c 9b 0b 53 bd bb 6e 4f 3d 00 a1 a8 bd
       0.011430189 -0.05152474 0.05064271 -0.08233833
000250 68 d9 dd 3c 6e d3 fd 3c 4b 57 db 3b ec 33 e7 3c
       0.027081206 0.030984607 0.0066937557 0.028223
000260 f2 06 16 be dc 51 0e 3b 17 9a 2b 3d f5 22 98 3d
       -0.14651087 0.0021716272 0.041895 0.074285425
000270 aa 6e ae 3d 82 d4 00 bd 8b 82 56 3c c3 13 06 bd
       0.08517201 -0.031452663 0.013092647 -0.03273369
000280 77 70 06 bd 42 a1 59 3d 45 c8 fb 3d c1 d2 50 3d
       -0.0328221 0.053132303 0.12294058 0.05098224
000290 e0 b9 61 3d ed 11 a6 3c 52 de 74 bd 1b ed a3 3d
       0.055108905 0.02027222 -0.059782334 0.08004209
0002a0 1f c9 34 3d cc 63 0e 3e e8 d8 5d bd 3e aa 41 bd
       0.044137117 0.13905257 -0.054161936 -0.047281496
0002b0 0c 0b 18 3d 89 ee 9b bb 64 4e bc 3d 1f 52 b4 3c
       0.03711991 -0.00475866 0.09194639 0.022011815
0002c0 72 d8 5f bd 77 be 4b 3d d3 d8 28 bd db bb 85 3d
       -0.054649778 0.04974219 -0.041222405 0.06529971
0002d0 84 d0 60 3d 44 0d 03 3e 11 97 8a bb 8b 88 0f 3d
       0.054886356 0.12798029 -0.0042294343 0.035042327
0002e0 4c 55 c0 3c eb 28 e3 3d 6a a3 26 bd e9 f6 3d bd
       0.023478173 0.11091789 -0.040683188 -0.04637805
0002f0 ae 5d 23 bd 66 bc 6e 3d 41 65 f5 bc 01 e8 a8 bd
       -0.03988426 0.05828514 -0.029955508 -0.08247376
000300 29 84 bd bd 5f eb a1 3b d4 4f 94 bd 63 0e 47 3d
       -0.09253723 0.0049413885 -0.072417885 0.048597705
000310 28 7c 11 bd 8e 5e 14 be 06 52 d1 bd 65 23 3d bd
       -0.035518795 -0.14489195 -0.10220723 -0.046176333
000320 a9 4b fd 3c 32 38 b2 bd e2 c1 e6 3c aa d5 6a bd
       0.030919867 -0.08702125 0.028168622 -0.057332672
000330 e0 7a 66 3d a6 2d 37 3d 35 13 58 3a 18 ca 74 bd
       0.056269526 0.044721268 0.0008242608 -0.059763044
000340 fb 41 15 bd 06 6f db 3c 04 1d 95 bd b9 bb 85 bd
       -0.036439877 0.026786339 -0.07280925 -0.06529946
000350 a6 a3 e6 3c f9 9c d4 bb 3c 49 f7 ba d6 09 e8 3c
       0.028154206 -0.006488439 -0.001886643 0.028325003
000360 b1 39 97 3d 74 9d da 3c 65 00 11 3d b8 47 88 bd
       0.07384051 0.026686408 0.035400767 -0.06654304
000370 82 e8 dc bd 1d 16 56 b9 1d e5 a3 bd 9f cc cc 3b
       -0.10786535 -0.00020416868 -0.08002684 0.0062499787
000380 aa b2 61 bd a6 ae 36 bd 16 ec 5f 3d 70 47 63 3c
       -0.055102028 -0.04460015 0.05466851 0.0138720125
000390 bd ee a4 bd 22 e0 e2 bc 1c 6f 8a 3d a9 40 4d bd
       -0.08053348 -0.027694765 0.06759474 -0.050110493
0003a0 94 79 f7 3c 3a 1e a5 bd 0c 71 1f bd 62 fe 97 3d
       0.03020934 -0.08062406 -0.03892617 0.074215665
0003b0 f2 1f bb bb 44 b1 bc bb 21 88 9c 3b 5d f8 c1 bd
       -0.0057105953 -0.0057584364 0.00477697 -0.094712
0003c0 80 2d b6 bc 73 e9 b1 bc f7 f3 0b 3d 8d 68 d4 bd
       -0.022238493 -0.021717763 0.03416821 -0.10371504
0003d0 9e c8 00 3d 31 7f c2 bd ba e2 53 bd 7a 87 8b bd
       0.031441323 -0.09496916 -0.051729895 -0.068129495
0003e0 7b 06 88 3b 21 df 1e bd 06 ca 14 bd fb 66 1d 3b
       0.004151163 -0.03878701 -0.036325477 0.002401768
0003f0 42 93 63 3c e5 87 1a bc 55 69 66 3d c0 ff 81 3d
       0.0138900895 -0.009431814 0.056252796 0.063476086

conv2.bias f4 [16]
000000 88 45 19 3d 66 29 1a 3d 61 9d be 3d 7e 29 89 bd
       0.037419826 0.037637137 0.093073614 -0.06697367
000010 02 c0 e9 bc be d5 2b 3c 41 05 0f bc 51 94 98 bd
       -0.02853394 0.010487972 -0.00872928 -0.07450164
000020 b5 24 d8 ba a0 ce 96 bd af 12 80 3d d4 df 56 3d
       -0.0016490432 -0.07363629 0.062535636 0.052459553
000030 b4 bc 68 3d 24 18 84 bd a3 13 2c 3c 5e 76 97 3d
       0.056820586 -0.06449917 0.010502729 0.073956236

fc1.weight f4 [32, 400]
000000 e9 5d 31 bd 45 ce c6 3c 0c 77 06 3d f1 66 10 b9
       -0.04330245 0.024268279 0.032828376 -0.00013771259
000010 45 81 68 bc f8 13 0f 3d f2 68 ff bc d2 a7 0b 3d
       -0.0141909765 0.034931153 -0.031177972 0.034095593
000020 fb f7 d7 bc 80 63 38 3b 84 0f 41 3c a2 4d 9d bc
       -0.026363363 0.0028135478 0.011783484 -0.019202057
000030 8a e3 3c 3c 8a 46 7a 3b 12 88 4d 3c a5 ee e6 bc
       0.011528859 0.0038189017 0.012544649 -0.028189966
000040 b6 ff 65 bc 79 c2 2d bc 17 8c e8 3c 4a d0 61 3c
       -0.014038017 -0.010605448 0.028387113 0.01378257
000050 ee 13 e0 3c 4b 15 f5 3c 5b b1 ad b8 39 11 6b 3b
       0.027353253 0.02991738 -8.282318e-05 0.003586842
000060 85 f4 93 ba 90 82 22 3d 40 50 c1 bc 14 d5 31 bd
       -0.0011288082 0.039675295 -0.023597836 -0.043416098
000070 23 a3 f1 3c 23 60 0b 3d 76 5a 31 3d 98 50 2e bd
       0.029496735 0.03402723 0.04329916 -0.04255733
000080 16 ee 26 3d 88 0d 1c bc 2f 79 c2 3c b3 73 d9 bc
       0.0407544 -0.0095247105 0.023739425 -0.026544427
000090 ad 43 c7 3b c9 82 24 bc 08 17 f3 bc 07 e7 c1 bc
       0.0060810656 -0.010040947 -0.029674068 -0.023669733
0000a0 c7 c4 34 bd 5e 2e 71 bd 4d 9a 95 bb b4 2c ae 3c
       -0.044132974 -0.05888211 -0.004565513 0.02126155
0000b0 d5 e5 a2 3c e8 7c 23 3c 9a 3e 99 bc 60 d9 fb bb
       0.019884983 0.00997851 -0.018706609 -0.007685825
0000c0 9b 42 7f 3c a1 26 fe bc 14 ec 8e 3d 76 c0 0b 3d
       0.015579845 -0.03102428 0.06978622 0.034119092
0000d0 a1 61 06 bd 38 c4 a2 3b c1 1e 85 bd 70 f7 67 3d
       -0.03280795 0.0049672388 -0.065000065 0.05663246
0000e0 87 6c 63 3c d2 76 4e bd d7 50 11 3d b2 7a 1f bd
       0.013880855 -0.050406285 0.035477486 -0.03893537
0000f0 b8 7b 64 3c 12 ba 64 3d f7 82 75 bd 97 bc c7 bc
       0.0139455125 0.055841513 -0.05993935 -0.024381919
000100 93 0d 83 3b 8b d6 b3 3c 23 ae 5d bc 94 01 a2 bd
       0.003999421 0.021952888 -0.013530287 -0.07910457
000110 d3 f1 10 bd 85 e9 62 3d c7 b4 32 bb e8 cc 20 bd
       -0.03538687 0.055398483 -0.0027268396 -0.039257914
000120 a3 84 56 bc 75 c9 c8 bc 01 06 65 3d 53 85 2f 3d
       -0.0130931465 -0.024510125 0.05591393 0.042851757
000130 3a ac 14 3c 6b 30 5f bd 88 06 b3 3d 30 c9 8c bc
       0.009074265 -0.054489534 0.0874148 -0.017185777
000140 c9 54 5d 3d 92 52 38 3d 0e 3b 42 bd b0 4e 0e 3d
       0.054035936 0.04500062 -0.0474196 0.03474301
000150 5b e7 63 bc 68 cc bb 3b 04 20 88 bc f6 26 52 bd
       -0.01391014 0.0057311542 -0.016616829 -0.051306687
000160 62 be 44 bc 2d ea 84 ba 7a 5b 51 3c 98 11 e9 bc
       -0.012008281 -0.0010140591 0.012778157 -0.028450772
000170 e7 b3 46 bd 10 1a c3 bc b2 57 16 3d 65 61 67 3b
       -0.048511412 -0.023816139 0.036704727 0.0035305854
000180 08 e1 16 3c 35 c5 4f bd 69 8e 07 bd 3d 64 78 bc
       0.009208925 -0.05072518 -0.033094797 -0.015160617
000190 d5 58 b9 bc 45 a5 99 3b 8a df 0a 3d 27 aa 2f 3c
       -0.022625366 0.004688891 0.03390459 0.01072172
0001a0 99 e2 27 bd 89 b3 08 3d 93 a5 80 bc 98 79 1b 3d
       -0.040987585 0.033374343 -0.015703952 0.037957758
0001b0 fb 41 d5 bb 15 fd 22 bc 67 4d bb 3c 26 5b 53 bc
       -0.0065081096 -0.009948035 0.022864057 -0.012900149
0001c0 4d 30 c1 3b 99 c2 74 bc 57 17 38 bb e2 24 b7 3c
       0.0058956505 -0.014938974 -0.0028090084 0.022356454
0001d0 a6 12 f0 bc f6 6c 04 bd a9 e2 05 bd 93 ed bc bc
       -0.029305767 -0.032330476 -0.032686863 -0.023062503
0001e0 e6 92 22 bd 92 81 ab bc e6 18 bf 3c c2 7f 2d 3b
       -0.039690875 -0.020935807 0.023327302 0.0026473855
0001f0 7c a5 03 3d c3 a5 8c bc 6f ed f7 3b 13 47 29 3d
       0.03214024 -0.017168885 0.007566146 0.041327547
000200 81 0c 3f bd 61 24 aa bc 05 4f 37 3d d3 dc 37 3d
       -0.046642784 -0.0207693 0.044753093 0.04488833
000210 62 c7 6b bc 9f b5 32 3d 31 29 8e 3c 45 f8 94 3a
       -0.014390798 0.04363024 0.017353626 0.0011365494
000220 69 46 84 3c 9a ae d4 bc 05 92 ed bc e7 08 19 bc
       0.016146855 -0.025962163 -0.029000292 -0.009340501
000230 a9 b1 c8 3c 2e 35 94 bb 9d cd 0c 3c a3 85 3d bd
       0.024498777 -0.004522941 0.008593944 -0.046270024
000240 77 87 5b bd b1 e1 23 3d 74 8c 81 3c 19 90 81 bc
       -0.053595986 0.040010158 0.015814044 -0.015815781
000250 0e 80 56 bc 29 be c9 3c 15 fa 84 3d a9 70 e1 3c
       -0.013092054 0.024626808 0.06493012 0.02751954
000260 97 b9 b2 3c 3f 7c 51 3b 25 8e 50 3c f8 e9 0e 3b
       0.021817012 0.0031964926 0.012729202 0.0021806937
000270 7d 12 34 bd 03 4e 4f 3d 91 c5 9c 3c ed 54 ad ba
       -0.043962944 0.050611507 0.019137176 -0.0013224162
000280 7d 97 4f 3d fa 22 0a bb 5f d2 07 bd 99 5a 25 bd
       0.05068158 -0.0021077977 -0.03315961 -0.040369604
000290 35 9c 2a bc a1 ef 95 bc 31 6c 35 b8 fd 4f 33 3d
       -0.010413219 -0.01830274 -4.3254524e-05 0.043777455
0002a0 0a 6d 30 bd 7c 48 34 bd 5f b6 bd bc 34 21 7d 3d
       -0.043072738 -0.04401444 -0.02315825 0.061799243
0002b0 09 b4 15 3d d8 10 67 3d 61 c1 0e 3d d8 2a d2 3c
       0.036548648 0.056412548 0.03485239 0.025655195
0002c0 12 72 a3 3b bd 5d 0d 3d c9 c6 6f 3b 53 cd 60 3d
       0.0049879635 0.034513224 0.003658699 0.054883312
0002d0 c5 82 7d bc 35 64 58 bc d0 10 97 ba d2 4e 54 bc
       -0.015473072 -0.013207485 -0.0011525396 -0.012958245
0002e0 0e 35 21 3d 31 a7 d0 3c cd 65 fd bc a2 7e d6 bc
       0.039357238 0.025470348 -0.030932331 -0.02618343
0002f0 da 1f b4 3b ff 54 47 bd 78 99 95 3c 18 88 c5 bc
       0.005496961 -0.048665043 0.018261656 -0.024112746
000300 ad 96 27 3d 23 9a a2 3c 0a b6 22 bd 0f 40 0c 3d
       0.04091518 0.019848889 -0.039724387 0.03424078
000310 31 bd b1 3c 0e 7e 46 bc d6 25 10 3c eb 2c 1c bd
       0.021696659 -0.012115015 0.008798083 -0.038128775
000320 74 0d 0b bd 5e da 37 b9 e3 21 27 3c 90 05 13 bc
       -0.033948377 -0.00017533588 0.01020095 -0.008973494
000330 9a 3f be 3c 3b 4f 06 3d 0c 79 2f 3d 0d 17 ab bc
       0.023223687 0.032790404 0.04284005 -0.020885015
000340 18 87 ce bc 3e 96 df 3c 73 72 1b bd ad 28 52 bc
       -0.025210902 0.02729332 -0.037950944 -0.012827081
000350 cf 93 05 bd 7c 01 7a 3c 21 6e e7 b7 87 75 01 bd
       -0.032611664 0.015259143 -2.7588629e-05 -0.031606223
000360 b3 b6 ee ba 18 4d 28 bc df 59 d2 3c 67 62 04 bc
       -0.0018212408 -0.010272287 0.02567762 -0.008080102
000370 5b bc 78 bc 11 55 b0 3b 57 1a c6 3c 2b d4 4c bd
       -0.015181626 0.0053812345 0.024182482 -0.050007027
000380 6d 29 43 bd 6f 24 4c 3d 8a cf cf 3c 85 12 02 bd
       -0.04764693 0.049839433 0.025367517 -0.031755943
000390 ef 0f 11 bd 28 ce 42 3d 67 f8 22 bd b7 95 08 bd
       -0.035415586 0.047559887 -0.039787676 -0.033345904
0003a0 73 cd d5 3b 0a f6 03 bd 8d 56 bc 3c 27 07 d1 bc
       0.0065247356 -0.032217063 0.02299049 -0.025516106
0003b0 cd da 68 3b 70 0e 81 bc 0d d2 f8 3b e7 44 1e bc
       0.0035530806 -0.015753955 0.0075933994 -0.009659982
0003c0 43 68 a6 3c 53 c5 44 3d da 44 15 3c 9a b6 93 bb
       0.020313388 0.048039746 0.009110654 -0.004507852
0003d0 17 1c 3a bd a3 81 d1 3c 40 19 3f 3c 9a cf 94 bb
       -0.045436945 0.02557451 0.011663735 -0.0045413496
0003e0 1a 12 56 3c b7 14 b7 3c a1 9f 29 bb 27 f3 b3 bc
       0.013065839 0.022348745 -0.00258825 -0.02196653
0003f0 43 30 ff bc b1 42 a0 bb aa 98 d4 3c f0 11 6d 3c
       -0.031150943 -0.0048907627 0.025951702 0.014469609

fc1.bias f4 [32]
000000 98 3f 60 bb 25 0d 9f 3d e6 39 08 be e9 be b9 bc
       -0.0034217592 0.07766179 -0.13303337 -0.02267404
000010 c7 69 40 3d ad c9 57 3d 63 d2 05 3d 82 c1 a2 3d
       0.046975877 0.052682567 0.032671344 0.07947065
000020 d6 d9 6e 3c a8 b4 74 3d d1 27 44 bc fe fe a6 bc
       0.014578303 0.0597426 -0.011972384 -0.020385262
000030 22 73 a7 3d 02 06 85 3c d2 3e cd 3c 43 15 c1 3d
       0.08176257 0.016238216 0.02505437 0.094278835
000040 10 6b 67 3d 77 80 a4 3d 04 8e 8e 3b c0 99 12 bc
       0.056498587 0.08032315 0.0043504257 -0.00894779
000050 4a 5f d6 3c a3 f0 a7 3d f6 c7 44 bd 94 c4 9d bb
       0.026168484 0.08200195 -0.04804226 -0.0048146937
000060 f0 de 18 3d dd 6b 64 3d 9b f3 8e bd b0 eb 17 bd
       0.037321985 0.05576693 -0.06980058 -0.037090003
000070 4f 99 24 3b f0 c8 3f bd 83 0b 96 bc ec dd 86 bc
       0.0025115793 -0.04682249 -0.018316036 -0.016463242

fc2.weight f4 [7, 32]
000000 fa 29 ba 3c 79 1e 82 be 2f 54 07 3d c8 e8 ed 3d
       0.022725094 -0.25413874 0.033039268 0.11616665
000010 9a 28 8e bd a7 29 00 be 71 f9 22 3d 51 81 e2 3d
       -0.06941338 -0.12515889 0.039788667 0.110598214
000020 22 af 31 be 77 6e 88 bd 3e 9f 9b 3d a2 03 2e bd
       -0.17351964 -0.066616945 0.075987324 -0.042483933
000030 26 ef 83 bc 61 99 78 3d 4c 05 bc bd da a4 85 be
       -0.016105246 0.06069315 -0.09180698 -0.26102334
000040 d7 25 d6 bd 6e e4 0e 3e 5f 19 f1 3d e2 42 47 be
       -0.10456436 0.13954327 0.11772417 -0.19459108
000050 ad be e1 3d 4c 77 1a be f0 be f4 3d 46 b7 0a 3c
       0.11022697 -0.1508457 0.11950481 0.008466547
000060 c5 3e 44 bd 36 8a 09 be 09 58 88 3d 8a 9d cc 3d
       -0.047911424 -0.1343163 0.066574164 0.09990986
000070 92 bb 65 3d b8 4a 25 3d 49 44 21 3e 8d 0a b8 bd
       0.056087084 0.04035446 0.15748705 -0.089863874
000080 1a 57 16 be 46 85 b9 bb 8b 9d c8 bc 45 fd 52 3e
       -0.14681664 -0.0056616394 -0.024489185 0.20604427
000090 55 4c 56 bd a4 2a b1 3d d1 df 63 bd c3 70 58 be
       -0.05231889 0.08650711 -0.05563337 -0.21136765
0000a0 47 b2 20 3d d3 13 de bc a4 94 e3 bd e2 4a 22 3c
       0.03923252 -0.027109062 -0.11112335 0.009905549
0000b0 af a2 f6 bd 5d b3 cd 3d bb e3 e9 3d 30 88 2d 3e
       -0.12042748 0.100439765 0.11420389 0.16946483
0000c0 4a f0 83 bd 95 8c dd bc 44 bf e2 3d 28 49 17 3e
       -0.06442316 -0.027044574 0.11071637 0.14774
0000d0 b5 9b 23 be b1 d3 a5 3d 09 69 07 be 70 6e 2b 3d
       -0.15977366 0.080970176 -0.13223661 0.04185337
0000e0 3b ac 30 be 04 11 8c bd df 93 eb bd 7f 59 7c 3c
       -0.172532 -0.06839183 -0.115028135 0.015402197
0000f0 50 ae c4 3d ca 0f 3a be 52 2d 43 3e ae c0 a1 3d
       0.0960356 -0.18170086 0.19060257 0.07898079
000100 82 5d ab bd c8 1a 4f 3e 12 b0 de bd 76 c8 1c be
       -0.083674446 0.2022506 -0.108734265 -0.15310845
000110 a4 6d a1 3d 15 72 00 3e c0 9e 16 bd ae 5e 8c bd
       0.078822404 0.12543519 -0.03677249 -0.06853996
000120 9f 56 b6 bd 03 ae 3b 3e 37 c2 2e 3e 61 ea 1a be
       -0.089032404 0.18328099 0.17066275 -0.15128471
000130 eb b7 9f 3c 56 03 e1 bd f8 5d 05 bd b1 e3 9a 3d
       0.019496879 -0.109869644 -0.03256032 0.0756296
000140 95 1f f5 3d d3 ee 27 3e a1 81 e9 3d 25 ea b6 bb
       0.119689144 0.16399698 0.11401678 -0.0055821114
000150 da 45 37 3e 25 2d df 3d be d6 cc bc 08 14 b3 3d
       0.1789774 0.108972825 -0.02500474 0.08744055
000160 fb ff 9d 3d 76 ad 27 bc 90 c8 a7 3d 6b ce 1b 3d
       0.0771484 -0.010234227 0.08192551 0.038038652
000170 25 9b f4 3d 97 e9 85 bd 63 a0 7e 3d dc 64 f2 bd
       0.11943654 -0.06538694 0.062164675 -0.11835644
000180 f8 25 24 3d 15 79 c5 bd f3 55 93 3c b0 a3 fa 3c
       0.040075272 -0.09642235 0.01798532 0.03059563
000190 a5 b3 03 be 41 fa ad bd 44 05 48 3e 82 2d 25 3e
       -0.12861498 -0.08494998 0.19533259 0.16130641
0001a0 62 c9 aa bd cb ba 60 bc a8 18 d0 3b 5e f6 ec bd
       -0.08339192 -0.01371641 0.0063505955 -0.11570428
0001b0 ad 0b 36 3e 1a a6 fb 3d 83 fe c2 3d d9 52 08 3c
       0.17777891 0.12287541 0.095212005 0.008320534
0001c0 41 9c fe bd 88 36 30 3e 9d 28 24 be b1 dc 37 bd
       -0.12432147 0.17208302 -0.16031118 -0.044888202
0001d0 5f f2 23 be 2c f6 d4 bc c5 92 26 3e e7 ab 12 be
       -0.16010426 -0.02599629 0.16266926 -0.14323388
0001e0 59 08 13 3e 7d 14 6d bd b5 ce b5 bd b5 ec 73 be
       0.14358653 -0.057880867 -0.08877317 -0.23820765
0001f0 a2 f6 db 3d d1 30 4a be 7d f9 c2 3c a2 8c 0a be
       0.10740401 -0.19745184 0.023800606 -0.1353021
000200 0f 98 87 bc ac 37 d6 3c 27 e3 22 be 1b 0f ca bd
       -0.016552 0.026149593 -0.15906964 -0.098661624
000210 bd b9 45 3e e2 54 33 bd e2 42 39 3d 52 3a 48 3e
       0.19309135 -0.043782122 0.0452298 0.19553497
000220 bc fb a1 3d 62 e2 73 bd d5 16 ae 3d 0e c6 0a bc
       0.07909343 -0.059542067 0.085004486 -0.0084700715
000230 31 c5 dc bd c7 99 05 be ad 0e 3b be cd 4d 0d 3e
       -0.10779799 -0.13046943 -0.18267317 0.1379921
000240 58 80 06 3c fa a4 27 3c 60 06 12 3e c0 9b 0b 3d
       0.0082093105 0.010232205 0.14260244 0.03408408
000250 e0 9e 9e bb 60 d0 cb 3b aa 25 af 3d 10 ae a2 ba
       -0.0048407167 0.0062199086 0.08552106 -0.0012411494
000260 e3 0c da bc 65 19 43 3e 1e 57 e3 bd b8 89 1d 3e
       -0.026617473 0.19052656 -0.11100601 0.15384567
000270 88 04 26 be 55 b7 3a be 93 42 15 3e e0 a5 00 be
       -0.16212666 -0.18233998 0.14576177 -0.12563276
000280 53 3f 8d bd 04 0c ba bd 3b e8 c1 3d 93 9c 0e be
       -0.06896844 -0.09084323 0.094681226 -0.13926916
000290 3b 88 74 be a3 be 07 be 2b 5e 23 bd db 77 25 be
       -0.23880093 -0.13256316 -0.039884727 -0.16159002
0002a0 75 a5 37 3e 3d e8 49 be b0 c0 15 be ef 11 39 be
       0.1793421 -0.19717498 -0.14624286 -0.18073247
0002b0 2a 3c da 3d 5b 6f 85 bd 2a 03 46 be ca c5 46 bd
       0.10656007 -0.0651538 -0.19337144 -0.04852847
0002c0 63 72 f2 bd b7 98 2f be 6b af 86 3d 63 6a 30 3e
       -0.11838224 -0.171481 0.06576427 0.17228083
0002d0 46 be 4a be e8 ab 22 be f9 54 1b 3e 3d 2c 39 be
       -0.19799146 -0.1588589 0.15169133 -0.18083282
0002e0 ae 95 54 3c e5 06 ed 3d 36 d4 fc 3d 45 02 dd 3d
       0.01297514 0.11573581 0.123451635 0.107914485
0002f0 d6 d0 21 bd 2d 79 d1 3d ba 89 25 be e0 cd 35 3d
       -0.039505802 0.102281906 -0.1616582 0.04438579
000300 c6 fa a1 bd 59 26 a0 bd 86 8c 3c bc 9d 7a b7 39
       -0.07909159 -0.07819814 -0.011508113 0.00034995834
000310 43 c8 b5 bd 7e 84 e6 3d 96 f3 19 3d 80 a0 10 bc
       -0.088760875 0.1125574 0.037585817 -0.008827329
000320 e0 3d f8 3d 64 87 75 bd a9 33 aa 3d 7f 75 f4 bd
       0.12121177 -0.05994357 0.08310635 -0.11936473
000330 4d 61 4e be 2f e8 53 be 4b d3 9c 3d fc 14 0b 3d
       -0.20154305 -0.2069404 0.076574884 0.03395556
000340 24 69 13 3a 77 a6 b7 bb 54 d3 7f bd 58 f6 13 3d
       0.0005623272 -0.005604561 -0.062457398 0.036123604
000350 c6 4a 79 bd 60 96 42 3d 91 43 e2 bc 1f 7d 29 3d
       -0.060862325 0.04750669 -0.027620109 0.04137909
000360 a5 60 b0 3d 7f 74 8c 3c 8d 26 24 3d b2 35 50 3e
       0.086121835 0.017145393 0.040075827 0.20332983
000370 0e 6d 7e 3d de d8 30 bd 36 82 15 be 86 30 9c 3d
       0.06211572 -0.04317557 -0.14600453 0.076264426

fc2.bias f4 [7]
000000 61 55 c9 bd 07 50 59 bd 92 5f 63 3d 18 1b 26 bb
       -0.09830738 -0.053054836 0.055511065 -0.002534574
000010 a7 8d 6f 3e 24 bb 53 be a8 e0 73 3d
       0.2339388 -0.20676857 0.05954042
